…
model.add(keras.layers.Dense(16, activation='sigmoid', input_shape=(784,)))

# Apply dropout to the first layer's output
model.add(keras.layers.Dropout(0.25))

# Define the output layer
model.add(keras.layers.Dense(4,activation='softmax'))

# Compile the model
model.compile('adam', loss='categorical_crossentropy')

# Print a model summary
print(model.summary())

output:
Model: "sequential"
_________________________________________________________________
Layer (type)                 Output Shape              Param #   
=================================================================
dense (Dense)                (None, 16)                12560     
_________________________________________________________________
dropout (Dropout)            (None, 16)                0         
_________________________________________________________________
dense_1 (Dense)              (None, 4)                 68        
_________________________________________________________________
dense_2 (Dense)              (None, 16)                80        
_________________________________________________________________
dropout_1 (Dropout)          (None, 16)                0         
_________________________________________________________________
dense_3 (Dense)              (None, 4)                 68        
=================================================================
Total params: 12,776
Trainable params: 12,776
Non-trainable params: 0
_________________________________________________________________
None
